…
train  = /home/ogura/20076433/DatasetScriptPosi/train_wiki_yolo.txt
#train  = /home/ogura/20076433/DatasetScriptPosi3/train_wiki_f01_id14.txt
#train  = /home/ogura/20076433/DatasetScriptPosi/train_voc_f01.all.txt
#train  = /home/ogura/20076433/DatasetScriptPosi/train_imdb_f01.txt
valid  = /home/ogura/Darknet/darknet_sdl/2012.txt
#valid  = /home/ogura/Darknet/darknet_sdl/2007.txt
#valid  = /home/ogura/Darknet/darknet_sdl/wiki_f01.txt
#valid  = /home/ogura/Darknet/darknet_sdl/imdb_f01.txt
names = data/voc.names
backup = TTT4_IMDB_BODY_TINET
idremap = data/voc_idremap.data

layer     filters    size              input                output
    0 conv      6  3 x 3 / 1   360 x 360 x   3   ->   360 x 360 x   6
    1 max          2 x 2 / 2   360 x 360 x   6   ->   180 x 180 x   6
    2 conv     12  3 x 3 / 1   180 x 180 x   6   ->   180 x 180 x  12
    3 max          4 x 4 / 4   180 x 180 x  12   ->    45 x  45 x  12
    4 conv     36  3 x 3 / 1    45 x  45 x  12   ->    45 x  45 x  36
    5 max          5 x 5 / 5    45 x  45 x  36   ->     9 x   9 x  36
    6 conv    144  3 x 3 / 1     9 x   9 x  36   ->     9 x   9 x 144
    7 conv    144  3 x 3 / 1     9 x   9 x 144   ->     9 x   9 x 144
    8 conv      7  1 x 1 / 1     9 x   9 x 144   ->     9 x   9 x   7
    9 region
mask_scale: Using default '1.000000'
remap by data/voc_idremap.data
remap 14 to 0
remap 0 to 1
ttt4
Learning Rate: 0.0003, Momentum: 0.9, Decay: 0.0005
Loaded: 2.450000 seconds
Region Avg IOU: 0.033714, Class: 0.611318, Obj: 0.365332, No Obj: 0.345172, Avg Recall: 0.000000,  count: 8
Region Avg IOU: 0.039337, Class: 0.610522, Obj: 0.323315, No Obj: 0.342513, Avg Recall: 0.000000,  count: 8
…
